actor_critic_cartpole.pth (torch, 41554 bytes, 11 tensors)

actor.policy_net.0.weight f4 [64, 4]
0	0x3e8b86f7	0.27251408
1	0x3e79efbd	0.24407859
2	0x3cd6ebd0	0.026235491
3	0x3f2ffb83	0.6874315
4	0xbeee8ceb	-0.46591887
5	0x3e35311c	0.17694515
6	0xbf1d2715	-0.6138776
7	0xbe4ca9fc	-0.19986719
8	0x3e7e35b3	0.24825172
9	0xbed5f8a5	-0.41791263
10	0xbedeb38c	-0.43496358
11	0xbf3adab9	-0.72989994
12	0x3e9b5375	0.3033711
13	0xbe50cbe0	-0.20390272
14	0x3ec812fa	0.39076978
15	0xbe274659	-0.16335429
16	0x3d62d9fe	0.055383675
17	0xbc17ec66	-0.00927267
18	0x3eb8bd5b	0.36081967
19	0xbce80984	-0.02832485
20	0x3d96dab3	0.07365932
21	0xbecd07a5	-0.40044895
22	0x3dace0d6	0.084413216
23	0xbe5967e0	-0.21231031
24	0xbe900788	-0.28130746
25	0xbd605fb0	-0.054778755
26	0x3e07e589	0.13271154
27	0x3f34ca78	0.7062144
28	0xbe83e819	-0.25763014
29	0x3e167e91	0.14696719
30	0xbe2d4c60	-0.16923666
31	0xbec2bfb8	-0.38036895
32	0xbeabc91a	-0.33551866
33	0x3e161ca8	0.14659369
34	0xbdd85d89	-0.105647154
35	0x3ea6894b	0.3252662
36	0xbcc4f8cc	-0.024044417
37	0xbe19160f	-0.14949821
38	0x3f2f4a85	0.6847308
39	0x3e391485	0.18074234
40	0x3e715f8a	0.23571602
41	0x3e85b646	0.26115626
42	0x3c1b3929	0.009474077
43	0x3ecd5aa1	0.40108207
44	0x3dfae3f6	0.12250511
45	0xbe1fc5c2	-0.15602782
46	0x3ec69141	0.38782695
47	0xbefb1a36	-0.49043435
48	0x3d5be7b4	0.053687766
49	0x3ef3b102	0.47595984
50	0x3dd3ded5	0.10345236
51	0xbeffa205	-0.499283
52	0x3e95c516	0.29251927
53	0x3dfe7e65	0.124264516
54	0x3dc7438e	0.09729682
55	0x3f387557	0.72054046
56	0x3e48133e	0.1953859
57	0xbd4ca611	-0.04996306
58	0x3d2988c2	0.041390188
59	0x3eaaa5bd	0.33329573
60	0x3c10c690	0.0088364035
61	0x3f01af2f	0.50657934
62	0x3ef7c29d	0.48390666
63	0x3ed3d728	0.4137509
64	0xbe5013f5	-0.20320113
65	0xbd4591de	-0.048234813
66	0xbe4db4fb	-0.2008857
67	0xbda500e2	-0.08056809
68	0xbe02d868	-0.12777865
69	0x3ce5ee89	0.028067844
70	0xbf41bbac	-0.7567699
71	0xbf2f3f30	-0.6845579
72	0x3eda3f47	0.42626402
73	0xbe2f6d4a	-0.17131534
74	0x3ed516ed	0.41619053
75	0x3dc1ba62	0.09459378
76	0x3e88bf95	0.26708665
77	0x3d93ee62	0.07223202
78	0x3dfcb223	0.123386644
79	0x3e88d902	0.26728064
80	0x3e4b804b	0.19873159
81	0xbe545ad5	-0.20737775
82	0xbe434363	-0.19068675
83	0x3f18ae65	0.59641105
84	0xbe62a48f	-0.22133087
85	0xbed8cef3	-0.4234539
86	0xbeb3b547	-0.3509924
87	0xbe6c465a	-0.23073712
88	0x3e8d3cde	0.275855
89	0xbe1a7d4f	-0.15086864
90	0xbe89cbfa	-0.26913434
91	0x3f08b470	0.53400326
92	0x3e78015d	0.2421927
93	0xbea54dd5	-0.32285944
94	0xbdb04a24	-0.08607891
95	0x3ece5a73	0.40303382
96	0x3e8323cd	0.2561325
97	0xbd341616	-0.043966375
98	0x3e8984d4	0.26859152
99	0xbe8d7768	-0.27630162
100	0x3ea74ea7	0.32677194
101	0x3e27ff8e	0.1640608
102	0xbe83731d	-0.25673762
103	0xbf29673e	-0.6617316
104	0xbdbf1376	-0.09329884
105	0x3e98bf35	0.2983338
106	0xbe861f88	-0.2619593
107	0xbed06268	-0.40700078
108	0x3e0aba4c	0.13547629
109	0x3e830b70	0.25594664
110	0x3eba92d7	0.36440155
111	0xbed18150	-0.4091897
112	0x3e04490d	0.12918492
113	0x3e14c565	0.14528425
114	0x3f20e6c3	0.62852114
115	0x3e5b8bd2	0.21440056
116	0xbdf8d6e4	-0.12150362
117	0x3dcb5737	0.09928744
118	0xbf1b7a0c	-0.60733104
119	0xbf2c8425	-0.67389137
120	0xbe2e8f53	-0.17046861
121	0xbe5a9433	-0.21345596
122	0x3f160bbb	0.5861165
123	0xbd9b5b9c	-0.075858325
124	0x3e904e01	0.28184512
125	0x3ea23fc4	0.31689274
126	0x3f12287a	0.5709301
127	0x3f134f00	0.5754242
128	0x3e49c643	0.19704537
129	0xbe87007c	-0.26367557
130	0x3cbe9604	0.023264892
131	0xbf1580c2	-0.58399594
132	0xbc44b9a2	-0.012007149
133	0x3eb8f090	0.36121035
134	0x3f19fbfd	0.6015013
135	0x3f2f799a	0.68544924
136	0x3ed6a9ba	0.41926366
137	0x3ed08ae0	0.40730953
138	0xbee0f92b	-0.439401
139	0xbf0950b2	-0.53638756
140	0xbde11421	-0.109901674
141	0x3cf21aae	0.029553737
142	0xbedd1ea0	-0.43187428
143	0xbedc2e84	-0.4300424
144	0x3ee34f23	0.44396314
145	0x3ec4f71e	0.38469785
146	0xbe714df7	-0.23564897
147	0x3eba7040	0.36413765
148	0x3e2820b8	0.16418731
149	0x3ec9450c	0.3931049
150	0x3e9df317	0.30849525
151	0x3ecffc21	0.40622047
152	0x3edf970c	0.43669927
153	0x3d216445	0.039402265
154	0x3eacfcd4	0.33786643
155	0x3e87915c	0.26478088
156	0x3d7dc2be	0.0619533
157	0x3e95d63e	0.29265016
158	0xbe90bd43	-0.28269395
159	0x3ec037f1	0.3754268
160	0xbe54b243	-0.20771126
161	0x3ebdbae3	0.37056646
162	0xbd86e5a9	-0.06586773
163	0xbeafc654	-0.34331
164	0xbef1cf65	-0.47228542
165	0xbec66d57	-0.38755295
166	0xbe0036e5	-0.1252094
167	0x3eef0f94	0.46691573
168	0xbea4de47	-0.32200834
169	0xbe025451	-0.12727477
170	0xbe1ae77a	-0.15127364
171	0x3f07bd62	0.5302335
172	0x3f0c0e9a	0.5470978
173	0xbf0a2c3c	-0.53973746
174	0xbf4036c7	-0.75083584
175	0xbf0b9e44	-0.5453837
176	0x3d93b024	0.072113305
177	0xbe3a8afd	-0.18217082
178	0xbe104606	-0.14089212
179	0xbe530a47	-0.20609389
180	0x3ee69ff9	0.45043924
181	0x3d5f9233	0.054582786
182	0x3e97655a	0.29569513
183	0x3b1a4950	0.0023542233
184	0xbe2cc6c1	-0.16872694
185	0xbc8dc59b	-0.01730614
186	0xbe82777d	-0.25481787
187	0xbf0100c6	-0.50391805
188	0xbe46f8b3	-0.19430809
189	0xbe298f8d	-0.16558667
190	0xbe3c9245	-0.18415172
191	0x3e8d42db	0.2759007
192	0x3efac04e	0.48974842
193	0x3eb3a483	0.3508645
194	0xbded5baa	-0.11589749
195	0xbe45430c	-0.19263858
196	0xbe92b470	-0.28653288
197	0xbe96f3cb	-0.29482874
198	0x3e08fe84	0.1337834
199	0xbeca7e62	-0.39549547
200	0xbe0c8018	-0.13720739
201	0xbe3d895c	-0.1850943
202	0xbe808a14	-0.25105345
203	0xbd82dab0	-0.063893676
204	0x3ee18600	0.44047546
205	0xbdfb663d	-0.1227536
206	0xbde8dc61	-0.11370159
207	0x3dd2f50b	0.103006445
208	0x3e833295	0.2562453
209	0xbd802690	-0.06257355
210	0xbe0446bc	-0.12917608
211	0x3dd8bda1	0.10583044
212	0x3ec4f2b2	0.38466412
213	0x3ebfad13	0.37436733
214	0x3e1a0a13	0.15042906
215	0xbeec5a3a	-0.46162587
216	0xbe83d582	-0.2574883
217	0x3ea7539d	0.3268098
218	0x3ed8f048	0.4237082
219	0x3e6fe156	0.23425803
220	0x3d83ad49	0.06429536
221	0x3e351c63	0.1768661
222	0x3e8a2d50	0.26987696
223	0x3ed70644	0.41996968
224	0xbdea5db3	-0.11443653
225	0x3df56742	0.119825855
226	0xbe794d58	-0.2434591
227	0xbf204e60	-0.6261959
228	0x3e75590a	0.23959747
229	0xbe222afc	-0.1583671
230	0x3e4bf8ba	0.199191
231	0x3f143f47	0.57909054
232	0x3d957f17	0.07299631
233	0x3f05c0f3	0.5224754
234	0x3eca42d2	0.39504105
235	0xbe20a045	-0.15686138
236	0x3e55e4e5	0.20888098
237	0xbcbccc6f	-0.0230467
238	0xbeaa8c38	-0.33310103
239	0xbefa82eb	-0.48928007
240	0xbe2d8862	-0.16946557
241	0xbe83356e	-0.256267
242	0xbda946ae	-0.08265434
243	0x3e3b2d5b	0.1827902
244	0xbea82399	-0.3283966
245	0x3d95687a	0.07295318
246	0xbe09091e	-0.13382384
247	0x3e6e9e85	0.23302658
248	0x3eae9719	0.34099653
249	0xbedb2bc5	-0.4280683
250	0x3dea41b9	0.11438317
251	0xbf277753	-0.6541645
252	0x3cf4b8e1	0.029873313
253	0xbedaf4ec	-0.42764986
254	0x3e28f885	0.16501053
255	0x3ed03c28	0.40670896

actor.policy_net.0.bias f4 [64]
0	0x3e8f30ef	0.2796702
1	0x3db8d0a4	0.0902417
2	0x3e5c9229	0.2154013
3	0xbebeedc5	-0.3729078
4	0xbefa8586	-0.48929995
5	0xbee24e3e	-0.4420032
6	0x3d5371aa	0.05162207
7	0xbef83e80	-0.48485184
8	0xbf126243	-0.57181185
9	0x3cdc09e2	0.026860181
10	0x3ee39601	0.4445038
11	0xbe2efa59	-0.17087688
12	0xbe8d8c78	-0.27646232
13	0x3d84882b	0.064712845
14	0xbedd8747	-0.4326727
15	0x3ec122d7	0.37721893
16	0x3e892d72	0.26792485
17	0x3ded3d90	0.11584008
18	0x3ca42c9e	0.020040806
19	0xbedb6897	-0.42853233
20	0x3d515a99	0.05111179
21	0xbe837003	-0.25671396
22	0x3e49af79	0.19695844
23	0xbe3a8ff0	-0.1821897
24	0x3e2d33df	0.16914319
25	0xbd92378d	-0.07139502
26	0x3ef60893	0.48053417
27	0xbea463cb	-0.32107386
28	0x3ecd2601	0.40068057
29	0x3eb00793	0.3438078
30	0x3ee4c4d6	0.44681424
31	0x3e871c61	0.2638884
32	0x3df14834	0.1178135
33	0x3e9359ff	0.287796
34	0xbec1b550	-0.37833643
35	0x3e1f0b82	0.15531734
36	0xbd46fc98	-0.048580736
37	0x3e06f1e5	0.13178213
38	0xbeb06849	-0.34454563
39	0xbec2451c	-0.3794335
40	0x3eb387b0	0.3506446
41	0xbecc374c	-0.39885938
42	0xbe82dff5	-0.2556149
43	0x3e90d274	0.28285563
44	0xbed8d775	-0.4235188
45	0x3e2e10a5	0.16998537
46	0x3d220980	0.03955984
47	0x3e27c653	0.16384248
48	0x3e1aafc6	0.15106115
49	0x3d0db597	0.034597006
50	0xbe630725	-0.22170694
51	0x3f08c67e	0.53427875
52	0x3ef29b64	0.4738418
53	0x3e4d468b	0.20046441
54	0x3db44338	0.088018835
55	0x3dc6742d	0.096901275
56	0x3ee91727	0.45525476
57	0xbd15967b	-0.036520462
58	0xbe976d26	-0.2957546
59	0x3ebe9cc9	0.37228993
60	0xbf0ee1ee	-0.5581349
61	0xbe76e69c	-0.24111408
62	0x3def1fc0	0.11675978
63	0xbeca8513	-0.39554653

actor.policy_net.2.weight f4 [64, 64]
0	0x3ba240e9	0.0049515855
1	0xbe37b9f6	-0.17942032
2	0xbe2482d6	-0.16065535
3	0xbd950012	-0.07275404
4	0x3dacc383	0.084357284
5	0xbc32f415	-0.0109224515
6	0x3e2aae96	0.16668162
7	0x3c8eab73	0.017415738
8	0x3e1d1a35	0.15342028
9	0x3e0a66b2	0.13515738
10	0xbc649137	-0.013950638
11	0x3c0820ab	0.00830857
12	0xbba3c22c	-0.0049975123
13	0x3e41c7b6	0.1892384
14	0x3d915a78	0.07097334
15	0xb957ada0	-0.00020568678
16	0x3da22042	0.07916309
17	0xbd9ed86d	-0.07756124
18	0x3e54dea0	0.2078805
19	0xbd771e06	-0.060331367
20	0x3d87a9f6	0.06624214
21	0xbe4f6a33	-0.20255356
22	0x3d8730d6	0.066011116
23	0x3d915656	0.070965454
24	0xbdad33f2	-0.084571734
25	0xbe00d226	-0.12580165
26	0xbd423d2a	-0.04742161
27	0xbde5e4bc	-0.11225268
28	0x3db5c9f7	0.08876412
29	0x3b7a7156	0.0038214526
30	0xbe351626	-0.1768423
31	0x3d7d85c8	0.061895162
32	0xbc3d19f3	-0.011541831
33	0xbd833e81	-0.06408406
34	0xbd54d470	-0.05196041
35	0xbd4c906d	-0.049942423
36	0x3c08749f	0.008328586
37	0xbbd66227	-0.0065424624
38	0x3d8e7ba2	0.06957175
39	0x3d003af1	0.03130621
40	0xbdff0686	-0.12452416
41	0x3e09a6c5	0.13442524
42	0x3c60cf06	0.013721233
43	0xbd193ca3	-0.037411343
44	0xbde220a5	-0.11041383
45	0x3b386723	0.0028137646
46	0xbdb1f1cc	-0.08688697
47	0xbc4d9f61	-0.012550206
48	0xbc941567	-0.018076612
49	0xbe1266af	-0.14296983
50	0x3e382464	0.17982632
51	0x3cf68ff2	0.030097935
52	0x3e0e4a85	0.13895614
53	0xbbe8cdfe	-0.0071046343
54	0xbd93473a	-0.0719132
55	0x3e08b42b	0.13349979
56	0xbcd94579	-0.026522385
57	0x3dd6d5f0	0.10490024
58	0x3cbd0a2a	0.023076136
59	0xbdbb5387	-0.09146791
60	0x3e097027	0.13421689
61	0x3e176e87	0.14788257
62	0xbd2fde18	-0.042936414
63	0x3e00e814	0.12588531
64	0x3e928cb6	0.2862298
65	0xbe26e956	-0.16299948
66	0xbdd21117	-0.10257166
67	0x3d8a2b3f	0.0674653
68	0xbdbb5e5e	-0.091488585
69	0xbe4630c1	-0.19354536
70	0x3d880753	0.06642022
71	0x3db2c0af	0.08728158
72	0xbd883465	-0.066506185
73	0x3e31f5d1	0.17378928
74	0x3e8069c5	0.25080696
75	0xbd522bb5	-0.051311214
76	0x3e04f09e	0.12982413
77	0x3dfedfab	0.12445005
78	0x3dd709f2	0.10499944
79	0x3e738b5d	0.23783632
80	0x3dc8c5b3	0.09803333
81	0xbe8e62d7	-0.27809784
82	0x3d16c629	0.036810074
83	0xbc119b83	-0.008887175
84	0x3d939f32	0.072080985
85	0xbe4cef7e	-0.20013234
86	0xbc837e66	-0.016051482
87	0xbdd09005	-0.101837195
88	0x3d77308e	0.06034904
89	0xbe04b3e7	-0.12959252
90	0x3da83671	0.08213509
91	0x3e3cf144	0.1845141
92	0x3e3a542d	0.18196173
93	0xbe18e01b	-0.1492924
94	0xbd1f8a36	-0.038950168
95	0x3ea6a075	0.32544294
96	0xbe0aed4b	-0.13567083
97	0x3ddb523d	0.10709045
98	0x3dff05b9	0.124522634
99	0xbdd17ce3	-0.102288984
100	0x3e1f75fb	0.1557235
101	0x3e4f4b3b	0.20243542
102	0x39eb2890	0.00044852914
103	0x3daeec61	0.085411794
104	0xbd6d9266	-0.058000945
105	0xbc70533a	-0.01466828
106	0x3d638d1b	0.05555449
107	0xbe3895e4	-0.18025929
108	0xbdfc68f4	-0.12324706
109	0xbcd71a68	-0.026257709
110	0xbe1bcc22	-0.15214589
111	0x3b42617a	0.0029660151
112	0xbd31960b	-0.043355983
113	0x3ccba1de	0.024857458
114	0xbd3624e5	-0.04446878
115	0x3b112c16	0.0022151521
116	0xbd83b14e	-0.064303026
117	0x3e0f989f	0.14023064
118	0x3e76005e	0.24023578
119	0x3e4da78a	0.20083442
120	0xbe1ed695	-0.15511544
121	0x3e292062	0.1651626
122	0x3d79001d	0.060791124
123	0x3cc4b5bb	0.024012437
124	0x3d95cae2	0.073140875
125	0x3d3b25e6	0.04569044
126	0xbe861463	-0.2618743
127	0x3df98c69	0.12184984
128	0x3e65254d	0.2237751
129	0xbd9aa0c3	-0.07550194
130	0xbdc1563f	-0.09440278
131	0xbcf42d0c	-0.029806636
132	0xbe119e8a	-0.14220634
133	0xbe01837a	-0.1264781
134	0x3e4861a1	0.19568492
135	0xbd3c1753	-0.04592068
136	0x3df1f45d	0.11814187
137	0x3d160384	0.036624447
138	0x3e633e6c	0.22191781
139	0xbdea16be	-0.11430119
140	0xbc26d219	-0.010181927
141	0x3e64da86	0.22348985
142	0xbc99e839	-0.01878749
143	0x3df006d3	0.117200516
144	0x3c067c47	0.008208341
145	0xbe8fdded	-0.28099003
146	0x3de6af61	0.112639196
147	0x3d73503b	0.059402686
148	0xbc892eec	-0.016746007
149	0x3c827ebb	0.01592957
150	0x3bc38084	0.005966248
151	0xbc88c41f	-0.01669508
152	0xbc467017	-0.012111685
153	0xbd9df69c	-0.07713053
154	0x3db27805	0.08714298
155	0x3e252df8	0.16130817
156	0x3e3c4b0d	0.18388005
157	0xbe03ad46	-0.12859067
158	0x3dfd62d2	0.12372364
159	0x3e95bf90	0.29247713
160	0xbdbfae54	-0.09359422
161	0x3e7a76c3	0.24459367
162	0x3da9960f	0.082805745
163	0xbe081eca	-0.13292995
164	0x3e29801c	0.16552776
165	0x3e1bebdd	0.15226693
166	0x3e0b7b2f	0.1362121
167	0x3e1ed654	0.15511447
168	0xbcac75e7	-0.021052314
169	0xbdee675d	-0.11640809
170	0x3db5abb5	0.08870641
171	0xbd3f2f6c	-0.046676084
172	0x3d74bab3	0.059748363
173	0x3d63ef19	0.055647943
174	0xbe589b59	-0.2115301
175	0x3d992759	0.07478208
176	0x3dcd118a	0.10013111
177	0xbe54f542	-0.20796683
178	0x3d7d518f	0.06184536
179	0x3da6aea1	0.081387766
180	0xbd06feeb	-0.032957952
181	0xbc62c128	-0.013839997
182	0x3e937f3a	0.28808004
183	0x3e6e5a8c	0.23276728
184	0x3c8c2981	0.017109634
185	0x3e1209f4	0.1426161
186	0x3da55ad2	0.08073963
187	0xbdd53f7c	-0.10412499
188	0xbdec74b6	-0.11545698
189	0x3dc8642f	0.097847335
190	0xbe2224ff	-0.15834425
191	0xbd5346c3	-0.051581156
192	0xbdd116df	-0.102094404
193	0xbd34bf39	-0.044127677
194	0x3d3a21b8	0.045442313
195	0xbdb192b6	-0.08670561
196	0xbd9e0e1a	-0.077175334
197	0xbd60bb44	-0.05486609
198	0x3e310f62	0.17291024
199	0xbdd31b2c	-0.10307917
200	0x3c50a548	0.012734719
201	0x3dbd45ce	0.0924183
202	0xbd831eb8	-0.064023435
203	0xbd93c649	-0.07215554
204	0xbd5c3047	-0.05375698
205	0x3e3b6e36	0.18303761
206	0xbb1f5d83	-0.0024317212
207	0xbda8f624	-0.082500726
208	0xbe3e67b5	-0.18594249
209	0xbdde1762	-0.10844304
210	0x3c97ea3d	0.01854431
211	0xbd2ae75b	-0.041724544
212	0xbe50a549	-0.20375551
213	0xba83bdac	-0.0010051033
214	0xbd1afe53	-0.0378402
215	0xbe16a2b3	-0.14710502
216	0xbca01541	-0.019541385
217	0xbe1452a8	-0.14484656
218	0xbd103685	-0.035208244
219	0x3cbc2a74	0.022969462
220	0xbdd2fd6a	-0.10302241
221	0xbe2124cd	-0.15736695
222	0x3ccdae31	0.025107475
223	0xbe155498	-0.14583051
224	0xbdc5efbc	-0.09664866
225	0xbd34cb1d	-0.044139016
226	0xbc7f41d6	-0.015579661
227	0x3d31a304	0.043368354
228	0xbc5f81ae	-0.013641758
229	0xbe39363c	-0.18087095
230	0x3da80ff9	0.082061715
231	0xbd71d6fa	-0.05904291
232	0xbb125f60	-0.002233468
233	0xbe2276ef	-0.15865682
234	0x3b64b02f	0.0034895053
235	0xbd66b6c1	-0.05632663
236	0xbd3956a8	-0.045248657
237	0xbdac6d0c	-0.084192365
238	0xbe3d20af	-0.18469499
239	0xbe0220bf	-0.12707804
240	0x3d468d9e	0.0484749
241	0xbcb82e46	-0.022483002
242	0xbe0dbdc8	-0.13841927
243	0x3d220da4	0.03956379
244	0xbe315282	-0.1731663
245	0x3d2ad0ab	0.041702908
246	0x3e24ed70	0.161062
247	0x3e52d71a	0.20589867
248	0xbd5c3878	-0.05376479
249	0x3e306a22	0.17227986
250	0x3d975f24	0.073911935
251	0xbe27606c	-0.16345376
252	0xbcb70e88	-0.022345796
253	0xbd6bf167	-0.057603266
254	0xbd16cbd6	-0.036815487
255	0xbd3dd315	-0.04634388

actor.policy_net.2.bias f4 [64]
0	0x3c1f5af1	0.009726272
1	0x3d9e0616	0.077160046
2	0xbcbe0f73	-0.023200726
3	0xbdd65645	-0.10465673
4	0xbd00ad77	-0.03141543
5	0xbdfd6bee	-0.123741016
6	0xbd40a2d2	-0.047030278
7	0xbd62bf6b	-0.05535833
8	0xbe00810c	-0.12549227
9	0x3d802508	0.06257063
10	0xbe3a39b3	-0.18186073
11	0x3d4bb159	0.04972968
12	0x3c103fbd	0.008804259
13	0xbe136a49	-0.14396013
14	0xbd88c6e4	-0.066785604
15	0x3e2163b1	0.15760686
16	0xbda6dc4b	-0.08147486
17	0xbe083e84	-0.13305098
18	0x3b55c4a8	0.0032618437
19	0xbabd1393	-0.0014425389
20	0xbd5c6789	-0.053809676
21	0xbda96b27	-0.08272391
22	0x3c3204e9	0.0108654285
23	0x3dd66e85	0.10470299
24	0x3db2a59a	0.08722992
25	0xbce9474b	-0.028476378
26	0xbe14df79	-0.14538373
27	0xbdf12fbb	-0.11776682
28	0x3daaae91	0.08334077
29	0xbd4e44c5	-0.050358552
30	0x3daa4a9f	0.08315014
31	0x3e01c35c	0.1267218
32	0x3dd4596a	0.10368617
33	0xbe41fd62	-0.18944314
34	0x3e09f565	0.13472517
35	0x3d63b8f3	0.055596303
36	0x3d2b1b12	0.041773863
37	0xbd92b380	-0.07163143
38	0xbe41df0d	-0.18932743
39	0x3d3de7ad	0.04636352
40	0xbdc1bb28	-0.09459525
41	0xbe12063c	-0.1426019
42	0x3b4545c6	0.0030101403
43	0x3d83c334	0.064337164
44	0x3e241e26	0.16027126
45	0x3dd700fa	0.10498233
46	0xbdebb76e	-0.11509596
47	0x3c78c063	0.015182587
48	0x3c9c2df9	0.01906489
49	0xbd84ae12	-0.06478514
50	0x3d3f4f83	0.046706688
51	0x3ddf7cd4	0.10912481
52	0xbc1eadc9	-0.009684988
53	0x3dbabe66	0.09118347
54	0xbd6b52a1	-0.057451848
55	0x3d98b58f	0.074565046
56	0xbd113514	-0.03545101
57	0xbd6d0862	-0.057869323
58	0x3cdc5d3e	0.02689993
59	0xbdf15703	-0.11784174
60	0xbd044d0c	-0.03230004
61	0x3ccf8cd7	0.025335712
62	0xbdde6a8a	-0.108601645
63	0xbe25dda6	-0.16197833

actor.policy_net.4.weight f4 [2, 64]
0	0x3dc10097	0.09423941
1	0xbe857e7b	-0.2607306
2	0xbda675ac	-0.08127913
3	0xbcd034a3	-0.025415724
4	0x3d364e60	0.044508338
5	0xbcf75390	-0.030191213
6	0xbc1de147	-0.00963623
7	0x3d767d64	0.060178176
8	0x3d7f940c	0.062397048
9	0x3decb06a	0.11557086
10	0x3c0729d1	0.008249716
11	0xbe4399a2	-0.19101575
12	0xbdca6da1	-0.09884191
13	0x3d8826db	0.06648036
14	0x3e171190	0.14752793
15	0x3e84426a	0.2583192
16	0x3c970c98	0.018438622
17	0x3d87cae5	0.06630496
18	0xbe621f42	-0.22082236
19	0x3e5726cc	0.21010894
20	0x3d58f4fb	0.052968007
21	0x3e1a3e5b	0.15062849
22	0x3d7676d9	0.060171936
23	0xbd7da7a4	-0.061927453
24	0x3dd2a845	0.10286001
25	0x3df88f93	0.121367596
26	0xbd8d8c1a	-0.06911488
27	0x3df8e7b8	0.12153572
28	0xbe4ddda8	-0.20104086
29	0x3e1680c3	0.14697556
30	0x3e067111	0.13129069
31	0x3e8165c2	0.25272948
32	0x3e4cff99	0.20019378
33	0x3cb04fde	0.021522459
34	0xbe817945	-0.25287834
35	0x3e329ef4	0.17443448
36	0x3da4a5bf	0.08039426
37	0x3e939c45	0.28830162
38	0x3d043992	0.032281466
39	0x3e848ae8	0.25887227
40	0xbd6cd624	-0.057821408
41	0xbd4edd04	-0.050503746
42	0x3e525829	0.20541443
43	0xbe703046	-0.23455915
44	0xbe8704a4	-0.26370728
45	0xbe5503b8	-0.208022
46	0xbd29458a	-0.041326083
47	0x3e443da4	0.19164139
48	0xbdcb89b3	-0.099383734
49	0x3da8ec3e	0.082481846
50	0xbe590051	-0.21191527
51	0xbe0b9f67	-0.13635026
52	0x3c345188	0.011005767
53	0x3d11288d	0.035439063
54	0x3cda674e	0.026660588
55	0xbe1f4974	-0.15555364
56	0x3c83c76c	0.016086303
57	0x3e2dba91	0.169657
58	0x3e5915f1	0.21199776
59	0x3df470af	0.11935555
60	0x3df280cb	0.118409716
61	0x3e531278	0.20612514
62	0x3cc53f22	0.024077956
63	0x3dda1726	0.106489465
64	0x3d78e246	0.060762666
65	0x3e620446	0.22071943
66	0x3e513e4f	0.20433925
67	0xbd7be0e8	-0.061493784
68	0xbc448b11	-0.011996047
69	0x3a2be600	0.0006557405
70	0xbe10f6c7	-0.14156638
71	0x3b6d4b98	0.0036208387
72	0xbd5891b8	-0.052873343
73	0xbe4215ab	-0.18953578
74	0xbc2e1dba	-0.010627205
75	0x3d578983	0.052621376
76	0xbc5637a4	-0.013074789
77	0x3dd5723b	0.10422178
78	0xbe784b66	-0.24247512
79	0xbdfeea1a	-0.12446995
80	0x3d56926d	0.052385736
81	0xbd5d0829	-0.05396286
82	0x3e3ce3db	0.18446295
83	0xbe5b6024	-0.21423393
84	0xbde61ca6	-0.11235933
85	0xbdeb7439	-0.11496777
86	0x3da1220f	0.07867824
87	0xbd658362	-0.0560335
88	0xbe564308	-0.20924008
89	0xbc5f7176	-0.013637891
90	0xbdef22c8	-0.11676556
91	0x3d353224	0.04423727
92	0x3e57f507	0.21089564
93	0xbe34748c	-0.17622584
94	0x3d0c20dc	0.034211025
95	0xbe44a3ab	-0.1920306
96	0xbe280438	-0.1640786
97	0xbd0b7e33	-0.0340559
98	0x3d8cc2f5	0.068731226
99	0xbe836720	-0.25664616
100	0xbcc82168	-0.024429992
101	0xbe397adc	-0.18113273
102	0xbd4af57e	-0.049550526
103	0xbd91763c	-0.071026295
104	0xbda9ee7e	-0.08297442
105	0xbd4948fe	-0.049141876
106	0xbc78e7d6	-0.015191993
107	0x3e085c64	0.13316494
108	0x3e36533b	0.17805187
109	0x3ce8e949	0.028431552
110	0xbe12012a	-0.14258257
111	0xbe1e4c86	-0.15458879
112	0xbd1ec6ac	-0.038763687
113	0xbe3c7177	-0.18402658
114	0x3e8463e3	0.25857458
115	0x3e60afcd	0.21942063
116	0x3d9d0586	0.07667069
117	0xbc28dc72	-0.0103064645
118	0xbd896106	-0.06707959
119	0x3e2253b8	0.15852249
120	0x3d7d5eeb	0.0618581
121	0xbe039a03	-0.1285172
122	0xbd5ccf1b	-0.05390845
123	0x3c5eb0ab	0.013591926
124	0xbe643a00	-0.2228775
125	0xbe614dcf	-0.22002338
126	0x3c846979	0.016163575
127	0xbcb7554e	-0.022379544

actor.policy_net.4.bias f4 [2]
0	0xbdf8b150	-0.12143195
1	0x3dd3ad11	0.10335744

critic.value_net.0.weight f4 [64, 4]
0	0xbd32064f	-0.043463048
1	0xbf021b3b	-0.508228
2	0x3f3a6135	0.72804576
3	0xbe9fdcef	-0.31223246
4	0xc0c3655d	-6.1061234
5	0x409d4559	4.9147153
6	0xc084b3f2	-4.146966
7	0x416d90ac	14.84782
8	0xc09a9ad6	-4.831401
9	0x3f478aac	0.7794597
10	0x4141d676	12.114859
11	0x409a0a9c	4.813795
12	0xc0aa5522	-5.322892
13	0x3f9399f1	1.1531354
14	0xc103b4d7	-8.23165
15	0x3fa73ea9	1.3065997
16	0x3e3751bf	0.17902277
17	0x3d35e3ba	0.04440663
18	0x3e96ec8e	0.29477352
19	0x3d153385	0.036426086
20	0x40ef01a0	7.4689484
21	0xbe07cfbe	-0.13262841
22	0x418c221e	17.516659
23	0xbf66cfcc	-0.9016082
24	0xbe6bf518	-0.23042715
25	0x3f34128c	0.703408
26	0xbf86aaa8	-1.052083
27	0x3fdfb454	1.7476907
28	0x410277c8	8.154243
29	0x40a584c0	5.172455
30	0xc0ad4295	-5.4143777
31	0x412609ea	10.37742
32	0x40f086a6	7.5164366
33	0x3f00f510	0.50373936
34	0x4123237d	10.196164
35	0x40e86622	7.2624674
36	0xc1010938	-8.064751
37	0xc0aa939d	-5.330519
38	0xc10cc774	-8.798695
39	0xc143a185	-12.2269335
40	0x3db528da	0.088456824
41	0x3edeee9c	0.4354142
42	0xc0b57102	-5.670045
43	0x402e8ae9	2.7272284
44	0x3d35032f	0.04419249
45	0x3dbfcd19	0.09365291
46	0x402b29bf	2.674423
47	0xbe467f0a	-0.19384399
48	0x40c3a580	6.1139526
49	0xc082cbd3	-4.087381
50	0x41435001	12.207032
51	0x4111d22b	9.113811
52	0x3e1d1575	0.15340216
53	0x3c9776f0	0.018489331
54	0x3fb04ed8	1.3774061
55	0x3eac55f9	0.33659342
56	0x3ee43096	0.44568318
57	0x3e11b4d2	0.14229134
58	0x3eabdd9c	0.33567512
59	0x3ecfa4ea	0.40555507
60	0x40a49f05	5.1444116
61	0x3f6e36df	0.93052477
62	0x41fa5c23	31.294989
63	0x403ce232	2.9513059
64	0xbf7d17ce	-0.9886445
65	0xbf935297	-1.150958
66	0xc0819c42	-4.0503244
67	0x4048cba3	3.137429
68	0x3ec7ddeb	0.39036497
69	0x3ed491b4	0.41517413
70	0xbf1d9e64	-0.6156981
71	0xbb63e780	-0.0034775436
72	0x3e056e2c	0.13030308
73	0x3f2ea6ba	0.68223155
74	0xc09c55ec	-4.8854885
75	0x403f2b8c	2.987033
76	0x3d480fe0	0.048843265
77	0x3f525f8c	0.8217704
78	0xc0ac0085	-5.3750634
79	0x4056ad9a	3.3543458
80	0xc06292c7	-3.5402086
81	0xbdea27d0	-0.11433375
82	0xc088f266	-4.2795897
83	0xbf2e467b	-0.68076295
84	0xbe5e5a36	-0.217141
85	0x3d8253d3	0.063636445
86	0x3f848e32	1.0355895
87	0xb9a00dd1	-0.00030527872
88	0x3e034bf8	0.12821949
89	0x3f3535a6	0.70784986
90	0xc0b3857b	-5.610044
91	0x404179b8	3.0230541
92	0xc0354072	-2.8320584
93	0xbcc55b7b	-0.024091473
94	0xc000b823	-2.0112388
95	0xc05eb1a7	-3.479593
96	0xbfcc48db	-1.5959734
97	0xbea05f36	-0.3132264
98	0xbfa29184	-1.2700658
99	0x3d5ba4be	0.053623907
100	0xc0144ff6	-2.3173804
101	0xbf9c20c3	-1.2197498
102	0x41197258	9.590416
103	0x3eae5c19	0.3405464
104	0xc0757945	-3.8355267
105	0x405ca2e7	3.4474428
106	0x40fa1271	7.814751
107	0xc0cc7a9e	-6.389968
108	0xbf6e2b29	-0.9303461
109	0x3ea2c6d8	0.3179233
110	0x3f899fbd	1.0751873
111	0x3f3b5054	0.73169446
112	0x3fa4feb1	1.2890226
113	0x3fcbf353	1.5933632
114	0x41773b27	15.4519415
115	0xc05072f8	-3.2570171
116	0xbf1051be	-0.5637473
117	0xbf1f33b5	-0.62188274
118	0xc090a8c0	-4.5205994
119	0x40035eeb	2.0526683
120	0xc0eb25ef	-7.3483806
121	0xc04dc813	-3.2153366
122	0xc20870cf	-34.110165
123	0xc0c4afd9	-6.146466
124	0x3fe4df29	1.7880603
125	0xbf8a3e3b	-1.0800241
126	0xc050781e	-3.2573314
127	0x40320374	2.7814608
128	0xbf013273	-0.50467604
129	0x3e100e7a	0.14068022
130	0x3f5a9f5b	0.8539941
131	0xbf852094	-1.0400567
132	0x413e311f	11.886992
133	0xc067d364	-3.6222773
134	0xc097ece1	-4.747666
135	0xbfd42b06	-1.657563
136	0x40022e1c	2.0340643
137	0x3f819f6a	1.0126774
138	0x41016295	8.086568
139	0xc0717264	-3.7726068
140	0x3e7d26ab	0.24721782
141	0x3f46cc18	0.7765517
142	0xc0a03b82	-5.007264
143	0x4049d83c	3.153823
144	0x3ec05b80	0.3756981
145	0x3eef7314	0.46767485
146	0xc0aa9ad3	-5.3313994
147	0x40516385	3.2716992
148	0x3dd774d6	0.105203316
149	0x3f651bc9	0.8949552
150	0xc0a47de7	-5.140369
151	0x4053e08e	3.3105807
152	0x3f206c52	0.62665284
153	0x3f07b1bb	0.5300557
154	0xbe101d6e	-0.14073727
155	0x3f645700	0.8919525
156	0xbf58f1f8	-0.84744215
157	0x3fa9ac9d	1.3255802
158	0xbe44048f	-0.19142364
159	0x400354e5	2.0520566
160	0x4042dcd0	3.0447273
161	0x40788729	3.8832495
162	0x41e11800	28.136719
163	0x40d75e18	6.730236
164	0x40a4d05f	5.150436
165	0x40a2711e	5.0763083
166	0x41a3afe5	20.460886
167	0x413041c8	11.01606
168	0x41313fa4	11.078037
169	0xbffb01ec	-1.9609962
170	0xc146d834	-12.427784
171	0x3f97fb11	1.1873494
172	0x3e8b433d	0.27199736
173	0x3d329258	0.043596596
174	0x3e54501f	0.20733689
175	0x3fb310f9	1.3989555
176	0xbf979c4e	-1.1844575
177	0x3fa0add3	1.2553047
178	0x41d1c40f	26.220732
179	0x3de4ba8d	0.11168394
180	0xbc05f659	-0.00817641
181	0x3de4ae31	0.11166037
182	0xbf16fe61	-0.589819
183	0xbcdcc0fc	-0.02694749
184	0x3ecb2a74	0.39680827
185	0x3f3cf539	0.7381168
186	0xc0acfe12	-5.4060144
187	0x4065dd3c	3.591628
188	0x40b246cd	5.5711427
189	0x4024cbac	2.5749311
190	0x41f282ac	30.313805
191	0x40b907c0	5.782196
192	0x3f352553	0.7076008
193	0x3f73eac0	0.95280075
194	0xbf253e43	-0.6454813
195	0x406f147b	3.735625
196	0xc017b63d	-2.370498
197	0xbe94fe6c	-0.29100358
198	0x3f133ba2	0.5751287
199	0xc055fb03	-3.3434455
200	0xbf05f586	-0.52327764
201	0xc0065f70	-2.099575
202	0xc14dd9bc	-12.865658
203	0xbfb1edac	-1.3900657
204	0x3e01be76	0.12670311
205	0xbbcc9652	-0.0062435055
206	0x3d1c499c	0.038156137
207	0x3d5cfb54	0.053950623
208	0xc0ad7e8d	-5.421698
209	0xc073c3ba	-3.8088212
210	0xc004e2cc	-2.0763426
211	0xc0bda857	-5.9267993
212	0xc0ef8cf2	-7.485955
213	0xc0821137	-4.0646014
214	0xc203945c	-32.894882
215	0xc12e03d1	-10.875932
216	0x3e6e881c	0.23294109
217	0x3e3b24f6	0.18275818
218	0xbded9fb0	-0.116027236
219	0x3f1b3905	0.6063388
220	0x406ab146	3.66707
221	0xc0a78746	-5.235263
222	0x4203be63	32.935925
223	0xc11b2202	-9.695803
224	0x3e3bf490	0.18355012
225	0x3f1e4943	0.6183054
226	0xc08ce7e4	-4.403307
227	0x403f822d	2.9923203
228	0xbf0b73a2	-0.54473317
229	0xbf3fe1ed	-0.7495411
230	0xc040d138	-3.0127697
231	0xc0115a86	-2.27115
232	0xbf45387c	-0.77039313
233	0x3f0f3735	0.55943614
234	0xc00a165f	-2.1576154
235	0xbdfee3d1	-0.12445796
236	0x3d8aa58e	0.06769858
237	0x3e4748c9	0.19461359
238	0xbfbbe275	-1.4678484
239	0x3e912d87	0.28355047
240	0x40fb1e0e	7.847419
241	0x4060ab7c	3.5104666
242	0x3f1b797c	0.60732245
243	0x40f289b6	7.5793104
244	0x3e32514a	0.17413822
245	0x3f4148bc	0.7550161
246	0xc09e5429	-4.9477735
247	0x4032d265	2.7940915
248	0xc1056da3	-8.339267
249	0x40a05818	5.0107536
250	0x3f856d68	1.0424013
251	0x41652e82	14.323854
252	0x413b2b9d	11.698148
253	0xbe85a262	-0.2610045
254	0x40b84e16	5.759532
255	0xc0a6d826	-5.2138853

critic.value_net.0.bias f4 [64]
0	0xc00e79db	-2.2261875
1	0xc05252d7	-3.2863061
2	0xc042671b	-3.037543
3	0x41287951	10.529618
4	0xc01900d8	-2.3906765
5	0xc0aff1b0	-5.498253
6	0xbfb7a445	-1.4347006
7	0xc0a6b927	-5.2101016
8	0xc0ef2955	-7.4737954
9	0xc0301006	-2.750978
10	0x408e3e60	4.445114
11	0xbfe10a03	-1.758118
12	0xc121fb1f	-10.123809
13	0xbfb057ec	-1.3776832
14	0xc038b5d3	-2.8860977
15	0xc01a6686	-2.4125075
16	0x3f4b4150	0.79396534
17	0xc0adf28e	-5.4358587
18	0x40e24b0a	7.07166
19	0x4100343a	8.012751
20	0xc0823532	-4.0689936
21	0xbff9abf3	-1.95056
22	0x40c2998d	6.081244
23	0xc0796289	-3.896639
24	0xc096c0e1	-4.711045
25	0xc0840a5c	-4.1262646
26	0xc070f4f1	-3.76495
27	0xbff7a78e	-1.9348009
28	0xc0860c2f	-4.1889873
29	0x3fd46733	1.6593994
30	0xc002714a	-2.0381646
31	0xc0a3fcde	-5.1246176
32	0xc022772b	-2.5385234
33	0xc09a6e1c	-4.825941
34	0xc0a291a8	-5.0802803
35	0x40fa21ef	7.8166423
36	0x40e0559f	7.010452
37	0x41040735	8.25176
38	0xc08e63fc	-4.449705
39	0xc03e268b	-2.9711025
40	0xc0755915	-3.8335621
41	0xc0663870	-3.5971947
42	0xc08c4b28	-4.3841743
43	0xc08e7d99	-4.4528317
44	0xc086de82	-4.2146616
45	0xbf8373b9	-1.0269691
46	0x40ef70a9	7.4825025
47	0xc026c73d	-2.6059105
48	0xc0e7a166	-7.238452
49	0xc05b81ad	-3.4297898
50	0xc0c24610	-6.0710526
51	0xbf676f83	-0.9040453
52	0xc02ef330	-2.733593
53	0xc005d65c	-2.0912085
54	0xc06e237f	-3.7209165
55	0xc081060e	-4.031989
56	0x40fc2082	7.8789682
57	0xc071021e	-3.7657542
58	0xbfe150c5	-1.7602774
59	0xbfc3cca0	-1.5296822
60	0xc0c06bed	-6.0131745
61	0x40da614c	6.824377
62	0xc04e1da9	-3.2205603
63	0xc0bcb9d3	-5.8976836

critic.value_net.2.weight f4 [64, 64]
0	0xbe5c1cb5	-0.21495326
1	0xc020e18b	-2.513766
2	0xc01fee19	-2.4989073
3	0xbf10781d	-0.5643328
4	0xbe970121	-0.2949305
5	0xc1120af6	-9.127676
6	0xbe911ed9	-0.28343847
7	0xbf6090b6	-0.8772081
8	0xbf8ad124	-1.0845075
9	0x40e8756d	7.264334
10	0xc004ef2b	-2.0770977
11	0xbf534034	-0.8251984
12	0xc0ead633	-7.3386474
13	0x3e5ae187	0.21375094
14	0xbeae5d63	-0.34055623
15	0xc0a9717b	-5.2951026
16	0xc001f9f5	-2.0308812
17	0xbe70751e	-0.23482177
18	0xc003ee0b	-2.061404
19	0xbfdfe312	-1.7491171
20	0x3ca6b096	0.020347875
21	0xbda40e01	-0.080104835
22	0xc00613bb	-2.0949543
23	0xbf8e544e	-1.1119478
24	0xbf3d8c61	-0.74042326
25	0xc08948c8	-4.2901344
26	0xbd515e7e	-0.051115505
27	0x3dbd94a2	0.09256865
28	0x3f019f68	0.5063386
29	0xbfe82b64	-1.8138242
30	0xc0b94ac5	-5.790377
31	0xbfb9a555	-1.450358
32	0xbe7e40a0	-0.2482934
33	0xc04e223b	-3.2208393
34	0xbf42d104	-0.7610018
35	0xbfe73c62	-1.8065302
36	0xc0151362	-2.329308
37	0xbfef5276	-1.869704
38	0xbf4aa7c7	-0.7916226
39	0x3e6f71c6	0.23383245
40	0xc1066786	-8.400274
41	0xc10b9797	-8.724509
42	0xbfc3664b	-1.5265592
43	0xbeafbd56	-0.3432414
44	0xc0820c9c	-4.064039
45	0xbf6316bf	-0.8870658
46	0xbff350a6	-1.9008987
47	0xc0a8a2ee	-5.269889
48	0xbf2a139b	-0.66436166
49	0xbf848e88	-1.0355997
50	0xc0329ad5	-2.7907002
51	0xbe352079	-0.17688169
52	0x3e8b3e60	0.27196026
53	0xc04440b8	-3.06645
54	0xbed55095	-0.41663042
55	0xc053ce50	-3.3094673
56	0xbfe0ce6f	-1.7562999
57	0x3f825df9	1.0184928
58	0x3e94b359	0.2904308
59	0xbea71205	-0.32630935
60	0xbf4e547d	-0.8059767
61	0xc0048f93	-2.071263
62	0xc094e49e	-4.6529074
63	0xc11aaf7e	-9.667845
64	0xbda6f9ac	-0.0815309
65	0xc006896d	-2.1021378
66	0xc02ad352	-2.669148
67	0xbe82950a	-0.25504333
68	0xbe804816	-0.25054997
69	0xbfee92ce	-1.8638551
70	0xbf15ad4c	-0.58467555
71	0xbf27f3d4	-0.6560643
72	0xbd890426	-0.066902444
73	0x3e572f39	0.21014108
74	0xbf3390f0	-0.7014303
75	0xbf7d3e72	-0.9892341
76	0xbee9848d	-0.4560894
77	0xbe6653a0	-0.22492838
78	0xbeb5f302	-0.35536963
79	0xc00365e7	-2.0530946
80	0xbf983e1d	-1.1893955
81	0x3ee9c14f	0.45655295
82	0xbf6fa803	-0.9361574
83	0xbf414c2c	-0.75506854
84	0xbdc93ff6	-0.09826653
85	0xbeadeccd	-0.33969727
86	0xbf816964	-1.0110288
87	0xbf7e29ef	-0.99282736
88	0xbf1d92f5	-0.61552364
89	0xbf6aa279	-0.91654164
90	0x3d182f14	0.037154272
91	0xbd262343	-0.040560972
92	0x3e758ade	0.23978755
93	0xbf76a6b5	-0.96348125
94	0xc1079fdb	-8.476527
95	0xbf4413dc	-0.76592803
96	0xbeb75419	-0.3580635
97	0xc0b09984	-5.5187397
98	0xbef94e01	-0.48692325
99	0xbf02686a	-0.50940573
100	0xbf817db5	-1.0116488
101	0xbf36241d	-0.71148854
102	0xbf4fd7ca	-0.8118864
103	0xbccb55b5	-0.024821142
104	0xc0b93bb2	-5.788537
105	0xc0ba4188	-5.8204994
106	0xbf8b7422	-1.0894816
107	0xbf400274	-0.75003743
108	0xc05def4a	-3.46773
109	0x3e68c457	0.22731148
110	0xbeff563d	-0.49870482
111	0xc0528279	-3.2892134
112	0xbf44f02c	-0.76928973
113	0xbf7a5cd3	-0.9779789
114	0xc0068982	-2.1021428
115	0x3e34b28c	0.17646235
116	0xbfcb9e69	-1.5907718
117	0xc091a780	-4.551697
118	0xbdf579b0	-0.11986101
119	0xbfc1aae8	-1.5130281
120	0xbf269363	-0.65068644
121	0x3e795efc	0.2435264
122	0x3d30ac03	0.043132793
123	0xbf1c8837	-0.6114535
124	0xbf2c218e	-0.672387
125	0xbf85759d	-1.0426518
126	0xbfc82413	-1.5636009
127	0x3e7930b6	0.24334988
128	0xbf040ed7	-0.51585144
129	0xbf15fcf8	-0.58589125
130	0xbf089cb2	-0.533641
131	0xbf0bd5e8	-0.5462327
132	0xbef63cb3	-0.48093185
133	0xbf0c9679	-0.54917103
134	0xbf02386a	-0.5086733
135	0xbf1aeb2e	-0.60515106
136	0xbf097598	-0.5369506
137	0x3df47c76	0.119378015
138	0xbf2caea5	-0.67453986
139	0x3d8d8bf4	0.069114596
140	0xbef64ce1	-0.4810553
141	0xbf208238	-0.626987
142	0xbf0ffad9	-0.5624214
143	0xbd390280	-0.0451684
144	0xbf2fe89f	-0.68714327
145	0xbf200e65	-0.62521964
146	0xbf2436e8	-0.6414628
147	0xbf12a3a2	-0.57280934
148	0xbf373f63	-0.71581095
149	0xbf07e180	-0.5307846
150	0xbf0445b7	-0.51668876
151	0xbf04fe2b	-0.5195033
152	0xbf312561	-0.6919766
153	0xbf35e241	-0.7104836
154	0xbefb8141	-0.4912205
155	0xbf2a4f6f	-0.66527456
156	0xbf254676	-0.6456064
157	0xbf076d94	-0.5290158
158	0xbf1d680b	-0.6148688
159	0xbf1d4de8	-0.61447
160	0xbf28de62	-0.6596433
161	0xbf2ffada	-0.68742144
162	0xbf0bb3f9	-0.5457149
163	0xbf17b033	-0.59253234
164	0xbf1ff181	-0.6247788
165	0xbf2ea90a	-0.68226683
166	0xbf16eaf0	-0.58952236
167	0xbf24346c	-0.6414249
168	0xbf2e9fef	-0.6821279
169	0xbf35a93c	-0.70961356
170	0xbf0b393e	-0.5438422
171	0xbf14e457	-0.5816092
172	0xbf2b1b11	-0.66838175
173	0xbf1763bf	-0.59136575
174	0xbf12444f	-0.5713548
175	0xbf16b1a6	-0.5886482
176	0xbf1e46e8	-0.61826944
177	0xbf2e7a3b	-0.6815526
178	0xbf1cd1c4	-0.61257577
179	0xbf267e46	-0.6503643
180	0xbf210941	-0.62904745
181	0xbf35741c	-0.70880294
182	0xbefd00c0	-0.49414635
183	0xbdae9b86	-0.085257575
184	0xbf012c2d	-0.5045803
185	0xbf29d9e4	-0.663481
186	0xbf221301	-0.6331025
187	0xbf16ec3e	-0.58954227
188	0xbf2039b1	-0.6258803
189	0xbf0bc2ac	-0.5459392
190	0xbf2d9cf2	-0.67817605
191	0xbf079283	-0.52957934
192	0xbf413263	-0.7546751
193	0xbf8831a1	-1.0640146
194	0xbf5c9086	-0.86158025
195	0xbefe0581	-0.49613574
196	0xbf1c9da4	-0.6117804
197	0xbf2a0f1a	-0.66429293
198	0xbf650969	-0.89467484
199	0xbf02793f	-0.50966257
200	0xbf31626e	-0.69290817
201	0x3df9e556	0.122019455
202	0xbe92f7db	-0.28704724
203	0xc0104184	-2.2539988
204	0xbee91c6b	-0.45529494
205	0xbefcfd31	-0.4941192
206	0xbf25ea6f	-0.6481084
207	0xbf84c709	-1.0373241
208	0x3e2ec8ed	0.17068835
209	0xbd6ae701	-0.05734921
210	0xbe213387	-0.15742312
211	0x3eacb88b	0.33734545
212	0xbe9a7525	-0.301675
213	0xbf09d7af	-0.5384473
214	0xbeaa1737	-0.33220837
215	0xbed80a44	-0.42195332
216	0xbee9c6a4	-0.45659363
217	0xbf5c1bd3	-0.85979956
218	0xbf313cff	-0.692337
219	0xbee2fda5	-0.4433414
220	0xbe95e8b8	-0.29279113
221	0xbec6f260	-0.38856792
222	0xbfc14d9e	-1.5101812
223	0xbf4dbbc6	-0.80364645
224	0xbf2c9b28	-0.6742425
225	0xc0129d1c	-2.2908392
226	0xbea50fad	-0.32238522
227	0x3c7a27aa	0.015268246
228	0xbea9c3ff	-0.33157346
229	0x3ed50164	0.41602623
230	0xbf3361ac	-0.7007091
231	0xbc5f64b4	-0.013634849
232	0xbfcf9dee	-1.6220071
233	0xbf14ef55	-0.5817769
234	0xbf557b40	-0.8339119
235	0xbf313753	-0.69225043
236	0xbf9cfc95	-1.2264582
237	0xbf196d4a	-0.59932387
238	0xbdc6826d	-0.096928455
239	0xbf8ad04e	-1.084482
240	0xbf6b6e63	-0.9196531
241	0xbe96bad8	-0.29439425
242	0xbf64a471	-0.8931342
243	0xbf332e6f	-0.6999273
244	0xbf277196	-0.65407693
245	0xbf5b2b31	-0.8561278
246	0xbee5a5bc	-0.44853008
247	0xbfd6dd07	-1.6786202
248	0x3e817548	0.2528479
249	0xbf33bd73	-0.7021095
250	0xbedb39f6	-0.42817658
251	0xbed5c3de	-0.41750997
252	0xbf3ab17b	-0.72927064
253	0x3dac084b	0.08400019
254	0xbf74266b	-0.9537112
255	0xbf9f7f27	-1.2460679

critic.value_net.2.bias f4 [64]
0	0xbf03f4fc	-0.5154569
1	0x3e80d9ff	0.25166318
2	0xbf24de74	-0.64401937
3	0xbc1dab3f	-0.009623348
4	0x3fc4f3d9	1.5386916
5	0x3f5ed171	0.8703833
6	0xbf2a5a98	-0.66544485
7	0xbf176988	-0.591454
8	0xbf25bfc0	-0.6474571
9	0xbf2f802d	-0.68554956
10	0xbf003423	-0.50079554
11	0xbf1399dd	-0.5765665
12	0xbf2765f0	-0.6538992
13	0xbd10bb4f	-0.03533488
14	0xc009eb92	-2.155003
15	0xbf041482	-0.5159379
16	0xbf25b8c0	-0.6473503
17	0x3e25e6ec	0.16201371
18	0xbf027b5a	-0.5096947
19	0x410f5b8a	8.959848
20	0x3e8c3ac2	0.2738858
21	0xbef5450c	-0.4790424
22	0xbf1abb78	-0.60442305
23	0xbfefe308	-1.874116
24	0x3f1c0daf	0.6095838
25	0xbf13fe7a	-0.57810175
26	0xbf5a92da	-0.8538033
27	0xbe34c72c	-0.17654103
28	0xbee2eb29	-0.44320038
29	0xbf2e823a	-0.6816746
30	0xbeb89b3c	-0.36055934
31	0x3e568ed1	0.20952918
32	0x415388c7	13.220893
33	0xbf0329e0	-0.5123577
34	0x3f3c70bd	0.73609525
35	0x3e505c1a	0.20347634
36	0x415301d3	13.187945
37	0x40307b58	2.7575283
38	0xbf3512b1	-0.70731646
39	0x3f8c192c	1.0945182
40	0xbf3b9ad5	-0.7328313
41	0xbf0a05e8	-0.5391526
42	0xbeff3a0a	-0.49848968
43	0xbf2d940f	-0.67804044
44	0xbf09fc80	-0.5390091
45	0x4110244c	9.008862
46	0xbf2accee	-0.6671895
47	0xbf040ada	-0.5157906
48	0xbf1d6690	-0.6148462
49	0x3e12746b	0.14302222
50	0xbf6b919d	-0.92019063
51	0xbf0bebe0	-0.5465679
52	0xbf076a66	-0.52896726
53	0x3ed6d31c	0.4195794
54	0xbf179778	-0.592155
55	0xbf22fef8	-0.636703
56	0xbfa0e646	-1.2570274
57	0xbf2b3386	-0.66875494
58	0x3efd4d8e	0.49473232
59	0xbf1c953b	-0.6116521
60	0x3e8e296b	0.27765974
61	0xbf0a3a61	-0.5399533
62	0x3ea6e89b	0.3259934
63	0xbf02d84e	-0.51111305

critic.value_net.4.weight f4 [1, 64]
0	0xbf3949d2	-0.72378266
1	0x3d5d8f98	0.05409202
2	0x3f0edabd	0.5580252
3	0x3e785aa1	0.24253322
4	0x3e73745b	0.23774855
5	0x3e848215	0.25880495
6	0x3f00c348	0.50297976
7	0x3f18ab29	0.5963617
8	0x3f14d7f2	0.58142006
9	0x3f0462a1	0.51712996
10	0x3ef5fe94	0.4804579
11	0x3f0f6185	0.5600818
12	0x3f16cd2e	0.5890683
13	0x3e217525	0.15767343
14	0xbfb46574	-1.4093461
15	0x3e3ba92d	0.18326254
16	0x3f0f2786	0.5591968
17	0x3f95f24c	1.1714568
18	0x3f04cd36	0.5187563
19	0x40d590a4	6.6739063
20	0x3e8b026c	0.27150285
21	0xbf4eaf36	-0.807361
22	0x3f0b2560	0.54353905
23	0xc02f507c	-2.7392874
24	0xbee2042f	-0.44143817
25	0xbefdcc14	-0.49569762
26	0x3f176707	0.5914158
27	0x3d0e3aa5	0.034723897
28	0x3dea17bc	0.11430308
29	0x3e735d6a	0.23766103
30	0x3df7f86d	0.1210793
31	0x3ed289aa	0.41120654
32	0x40be1246	5.9397306
33	0x3f080aea	0.53141654
34	0xbd229b85	-0.039699096
35	0x3de0fabe	0.10985325
36	0x40ade12d	5.4337373
37	0x3f5490b4	0.830333
38	0x3f17f04a	0.59351027
39	0x3e8b2286	0.27174777
40	0x3e34fd62	0.17674783
41	0x3efdab56	0.4954478
42	0xbe2a2eb1	-0.16619374
43	0xbe5d9115	-0.21637376
44	0x3f04f057	0.5192923
45	0x40801a71	4.0032277
46	0x3f051ccc	0.51997066
47	0x3ef52595	0.47880235
48	0x3f19179a	0.5980164
49	0x3d8f6325	0.07001332
50	0xbefa361c	-0.48869407
51	0x3f116067	0.56787723
52	0x3f0114eb	0.50422543
53	0x3ebde58b	0.3708919
54	0x3efdc993	0.4956785
55	0x3f00f289	0.5037008
56	0x3f7dfa79	0.99210316
57	0x3f0a0df8	0.53927565
58	0x3f97b781	1.1852876
59	0x3f02245c	0.5083673
60	0x3ee6d622	0.45085245
61	0x3f189074	0.5959542
62	0x3ed3e68e	0.41386837
63	0x3effb4b2	0.49942547
